models/best_nn_model.pth (torch, 109832 bytes, 8 tensors)

fc1.weight f4 [128, 9]
0	0x3d6cf3cb	0.057849687
1	0x3e162407	0.14662181
2	0x3e3c7fbd	0.18408103
3	0x3ebd723b	0.37001213
4	0x3e827dc4	0.25486577
5	0xbef476f8	-0.47747016
6	0x3df09ce2	0.11748673
7	0x3c4438e6	0.011976456
8	0xbef77e03	-0.48338327
9	0x3e1b9b94	0.15196067
10	0xbf7b91d3	-0.98269385
11	0x3e63115e	0.22174594
12	0xbd4401d6	-0.047853313
13	0xbd1caab4	-0.038248733
14	0xbd784e07	-0.060621288
15	0x3e1f85f3	0.15578441
16	0x3e884fcc	0.2662338
17	0x3e4329cb	0.19058912
18	0x3e4c275a	0.19936886
19	0xbd3fcd49	-0.046826635
20	0xbf4891ae	-0.7834729
21	0x3e2418d8	0.16025102
22	0xbdc36761	-0.09541202
23	0x3da3fbea	0.08007033
24	0x3e3d01c7	0.18457709
25	0xbd020d99	-0.03175125
26	0x3de0798f	0.109606855
27	0x3bdfecc0	0.0068336427
28	0xbd2a0a18	-0.041513532
29	0x3cd76f37	0.026298149
30	0x3e9e76eb	0.30950102
31	0x3ef2ae45	0.47398582
32	0x3eb16edc	0.34654891
33	0xbd765348	-0.060138017
34	0x3f1fe8bb	0.62464494
35	0x3f01d1cf	0.5071077
36	0xbf531390	-0.82451725
37	0x3dd4d38d	0.103919126
38	0x3e0b2c54	0.13591129
39	0xbd017ce2	-0.03161324
40	0xbd2e3939	-0.04253504
41	0xbdc490ff	-0.09597968
42	0x3e3816d1	0.17977454
43	0x3df8e6a3	0.121533655
44	0x3e325d2b	0.17418353
45	0xbede3549	-0.43400028
46	0xbeb37371	-0.35049012
47	0xbd3adcfe	-0.04562091
48	0x3e51eed1	0.20501257
49	0x3e42cad9	0.19022693
50	0x3e51fb23	0.20505957
51	0xbd714198	-0.058900446
52	0xbf37a970	-0.71742916
53	0xbd5d4a5f	-0.054026004
54	0x3e84cb85	0.25936523
55	0x3e5eb743	0.21749596
56	0x3dba5290	0.09097779
57	0x3f509ec3	0.8149225
58	0x3d646873	0.055763673
59	0x3e30d04a	0.17266956
60	0xbd803101	-0.06259347
61	0x3d4d6b30	0.05015105
62	0x3db1b1fa	0.086765245
63	0x3eb7b166	0.35877532
64	0x3e4f0219	0.20215644
65	0x3e94b249	0.2904227
66	0xbe10832e	-0.14112541
67	0x3e0d3085	0.1378804
68	0x3e728b4a	0.23685947
69	0xbe2aec82	-0.16691783
70	0x3dd66bec	0.10469803
71	0x3ec2ae65	0.38023677
72	0xbecae11b	-0.39624867
73	0x3a71bd40	0.0009221621
74	0xbd01a97f	-0.031655785
75	0x3df5c19e	0.1199982
76	0x3f12cc49	0.57342964
77	0x3e05d12e	0.13068077
78	0x3dbcea78	0.09224409
79	0x3dd5c901	0.10438729
80	0xbec2b122	-0.38025767
81	0xbf0bdee2	-0.5463697
82	0xbd114c44	-0.035473123
83	0xbd42fbfd	-0.047603596
84	0xbe035514	-0.12825423
85	0xbf342846	-0.7037395
86	0xbe34a506	-0.17641076
87	0xbe02e2fa	-0.12781897
88	0xbe23d305	-0.15998466
89	0xbf3953dc	-0.72393584
90	0x3ea7ca2d	0.32771435
91	0xbea71aa1	-0.32637504
92	0x3ded6a66	0.115925595
93	0x3eabda80	0.3356514
94	0x3ee7c4fc	0.45267475
95	0x3e044378	0.12916362
96	0x3ea7b229	0.32753113
97	0xbe99ff85	-0.30077758
98	0x3e01b1c7	0.12665473
99	0xbecdfdc8	-0.40232682
100	0xbed6de61	-0.41966537
101	0xbd9aa680	-0.075512886
102	0xbecf5d4d	-0.4050087
103	0xbed8e835	-0.4236466
104	0xbe2ad5bf	-0.166831
105	0x3f0bc3c5	0.54595596
106	0xbed6d9fc	-0.41963184
107	0xbdeb871d	-0.1150038
108	0xbc827eb6	-0.015929561
109	0xbd0e39ea	-0.0347232
110	0xbf4e8294	-0.80667996
111	0xbe6c676b	-0.23086326
112	0xbe37f9e1	-0.17966415
113	0xbe725f4d	-0.23669167
114	0x3e7a8900	0.24466324
115	0x3e6f201b	0.23352091
116	0x3e8228ab	0.25421652
117	0x3f1d8b87	0.61541027
118	0xbe99870a	-0.2998584
119	0x3b719a0e	0.0036865505
120	0x3f1cac83	0.6120073
121	0xbe9d5da9	-0.3073552
122	0xba360cb3	-0.00069446414
123	0x3f1cb8f2	0.61219704
124	0xbe9be059	-0.304446
125	0x3ae1d827	0.0017230556
126	0x3e2d6b0a	0.16935363
127	0xbdf49c4c	-0.11943874
128	0xbf11534b	-0.5676772
129	0x3ea1752d	0.3153471
130	0x3cdc3af3	0.026883578
131	0x3da28f88	0.07937533
132	0x3c1aa982	0.009439828
133	0xbf4501a0	-0.76955605
134	0xbdba55dc	-0.090984076
135	0x3e653bdb	0.22386114
136	0xbe7dc4d9	-0.24782123
137	0xbf1c06d8	-0.6094794
138	0x3ecc474a	0.3989814
139	0x3e0901e0	0.13379622
140	0x3e4325c0	0.19057369
141	0x3da010d3	0.07815709
142	0xbef9aec3	-0.48766145
143	0xbcb478ea	-0.022030313
144	0xbdbd081d	-0.09230063
145	0x3d0f0865	0.034920115
146	0xbe0cd684	-0.13753706
147	0xbde1d7c2	-0.11027481
148	0xbe259374	-0.1616953
149	0x3f4a4687	0.79013866
150	0xbec38698	-0.38188624
151	0x3d8cb984	0.06871322
152	0xbe1752e3	-0.14777713
153	0x3e8939df	0.26801965
154	0x3e8c9d5d	0.2746381
155	0x3e81f02a	0.25378543
156	0xbe12dee9	-0.14342846
157	0xbe0533d9	-0.1300806
158	0xbe1b3b5c	-0.15159363
159	0x3f620395	0.88286716
160	0xbb7214c1	-0.003693864
161	0xbc3073af	-0.010769769
162	0x3e71ab32	0.23600462
163	0xbe36d7f7	-0.17855822
164	0xbe945fce	-0.28979343
165	0x3e7a97db	0.24471991
166	0x3f5e6464	0.86871934
167	0xbe5a12be	-0.21296212
168	0x3ea22107	0.31665823
169	0xbbc7dd8a	-0.0060994076
170	0xbe8beb61	-0.27328017
171	0x3f14588d	0.5794762
172	0x3f0ca423	0.5493795
173	0x3f169b1c	0.5883043
174	0xbe069ad6	-0.13145003
175	0xbde71fb3	-0.11285343
176	0xbe01fb99	-0.12693633
177	0xbecc00f3	-0.39844474
178	0xbed5a850	-0.41729975
179	0xbec83128	-0.39100003
180	0x3e8bad35	0.27280584
181	0x3d5892f1	0.05287451
182	0x3dba8b7c	0.09108636
183	0x3c8483aa	0.016176064
184	0x3e7340f9	0.23755254
185	0xbf494f9c	-0.786371
186	0x3ccf77a3	0.025325602
187	0xbcb588d4	-0.022159971
188	0x3ea41705	0.32048813
189	0x3e232e5e	0.15935656
190	0xbea912ef	-0.33022258
191	0x3c4c3d2b	0.012465755
192	0x3ec61b42	0.3869267
193	0xbe898a08	-0.26863122
194	0x3e07a375	0.13245948
195	0xbf278c5f	-0.65448564
196	0xbea53f92	-0.32275063
197	0x3e127748	0.14303315
198	0x3d08a545	0.03336074
199	0xbde0084e	-0.10939084
200	0x3e648d0f	0.22319435
201	0xbf5ad942	-0.8548776
202	0xbdd6e17b	-0.10492226
203	0x3e87a05f	0.2648954
204	0x3be6d5b3	0.007044518
205	0xbdc7f036	-0.097626135
206	0x3e87bba6	0.26510352
207	0xbf279f95	-0.6547788
208	0xbd74fe6b	-0.059812944
209	0xbdc7db78	-0.09758657
210	0x3f1e728f	0.6189355
211	0xbd951a0a	-0.07280357
212	0xbda447e9	-0.08021528
213	0xbd789dd2	-0.060697384
214	0xbc95d18b	-0.018288394
215	0xbdb6409f	-0.08899044
216	0xbe074f08	-0.13213742
217	0xbe23ba3f	-0.15989016
218	0xbf18080b	-0.5938727
219	0x3d285342	0.041095026
220	0x3ed76d61	0.42075637
221	0xbc3614bd	-0.011113343
222	0x3edb2792	0.42803627
223	0x3d1ee3ce	0.03879147
224	0x3cade3c9	0.02122678
225	0xbe889b26	-0.2668087
226	0x3e050203	0.12989049
227	0x3f4d3e9d	0.80173665
228	0xbe432573	-0.19057254
229	0x3da2eba6	0.079551026
230	0xbd5e4faa	-0.054275192
231	0xbe878a63	-0.26472768
232	0x3dcf50f5	0.10122863
233	0xbe35bc5f	-0.17747639
234	0xbe316db4	-0.17327005
235	0xbe4e05db	-0.20119421
236	0xbec90ad8	-0.39266086
237	0x3f006543	0.50154513
238	0xbef1d8e4	-0.47235787
239	0x3b949738	0.0045346282
240	0xbe1ea2f4	-0.15491849
241	0x3daa45c7	0.0831409
242	0xbd91bef7	-0.07116502
243	0xbe98a110	-0.2981038
244	0xbdb0d488	-0.08634287
245	0x3f1508ab	0.5821635
246	0xbe73b721	-0.23800327
247	0xbe251d1e	-0.16124389
248	0x3f15170d	0.582383
249	0xbe898606	-0.26860064
250	0x3d5edd14	0.054410055
251	0x3d47f9bd	0.048822153
252	0x3c3fa8c7	0.0116979545
253	0x3e634c1c	0.22197002
254	0xbe4fd2b6	-0.20295224
255	0x3f24d820	0.6439228

fc1.bias f4 [128]
0	0xbe880da7	-0.26572916
1	0xbf0d729b	-0.55253
2	0xbeabbe66	-0.335437
3	0xbee454f7	-0.44596073
4	0xbedca8e2	-0.43097597
5	0xbeae798d	-0.3407711
6	0xbe9b93e4	-0.3038627
7	0xbdc9bba3	-0.09850242
8	0xbe579e1e	-0.2105641
9	0xbf316441	-0.692936
10	0xbcb4e83b	-0.022083392
11	0xbecb7fb9	-0.39745882
12	0xbed4b27b	-0.4154242
13	0xbf6c9c1e	-0.92425716
14	0xbee4a080	-0.44653702
15	0xbeb6c54a	-0.35697395
16	0xbec53c6d	-0.38522664
17	0xbed6eb61	-0.41976455
18	0xbef9e27c	-0.48805606
19	0xbf813be4	-1.0096402
20	0xbec400a1	-0.3828173
21	0xbe99080f	-0.2988896
22	0xbebf1d37	-0.37326977
23	0xbf140bd7	-0.57830566
24	0xbe813f4a	-0.25243598
25	0xbe81c23e	-0.25343508
26	0xbed07abf	-0.40718648
27	0xbeceaca1	-0.4036608
28	0xbe82efab	-0.25573477
29	0xbea6e466	-0.3259613
30	0xbf2a4ead	-0.665263
31	0xbebe13c5	-0.37124458
32	0xbf1e6877	-0.6187815
33	0xbf64e326	-0.894091
34	0xbec5ca87	-0.3863108
35	0xbef555d5	-0.47917047
36	0xbf083f6e	-0.53221786
37	0xbf06fc98	-0.5272918
38	0xbeb1e766	-0.34746855
39	0xbeb45073	-0.35217628
40	0xbeffc0f1	-0.4995189
41	0xbe4122fc	-0.18861002
42	0xbf24a990	-0.6432123
43	0xbf3479bd	-0.7049826
44	0xbe7040e9	-0.23462261
45	0xbec1ec56	-0.37875623
46	0xbe47aeca	-0.1950027
47	0xbef3b94b	-0.47602305
48	0xbeb234bc	-0.34805858
49	0xbeb6a3d3	-0.35671863
50	0xbdb3c083	-0.08776953
51	0xbf543d70	-0.82906246
52	0xbec85a4d	-0.39131394
53	0xbf547342	-0.8298837
54	0xbebe7338	-0.3719728
55	0xbea04635	-0.31303564
56	0xbef9c973	-0.48786506
57	0xbe91497e	-0.28376383
58	0xbf579ef0	-0.84226894
59	0xbf8122c9	-1.008874
60	0xbea9fa28	-0.33198667
61	0xbec575c6	-0.38566417
62	0xbe668991	-0.22513415
63	0x3c496644	0.012292448
64	0xbebac0ac	-0.36475122
65	0xbe9c8787	-0.3057215
66	0xbf8654a9	-1.0494586
67	0xbe17195d	-0.14755769
68	0xbf040076	-0.51563203
69	0xbe70be2f	-0.2351005
70	0xbf1a9a8b	-0.60392064
71	0xbdd422a7	-0.10358172
72	0xbf79cc07	-0.97576946
73	0xbea0b886	-0.3139078
74	0xbe704e85	-0.23467453
75	0xbe8fb2e3	-0.28066167
76	0xbee7c7f4	-0.4526974
77	0xbe856a94	-0.26057875
78	0xbed41742	-0.41423994
79	0xbec7481d	-0.38922206
80	0xbebbea5a	-0.36702234
81	0xbea779e7	-0.32710192
82	0xbe8ecb27	-0.27889368
83	0xbf026602	-0.509369
84	0xbe875341	-0.26430705
85	0xbf127479	-0.57208973
86	0xbeea61d4	-0.45777762
87	0xbeb846c0	-0.35991478
88	0xbf146e0c	-0.5798042
89	0xbec3c4b3	-0.38236007
90	0xbf039450	-0.5139818
91	0xbf72ca84	-0.94840264
92	0xbea3dd14	-0.32004607
93	0xbe9f73eb	-0.31143126
94	0xbf245e91	-0.64206797
95	0xbef80f31	-0.4844909
96	0xbe6b4ad7	-0.22977768
97	0xbf025e37	-0.5092501
98	0xbf1b451d	-0.60652333
99	0xbefce3d8	-0.4939258
100	0x3d862b13	0.065511845
101	0xbebc9073	-0.36828956
102	0xbf77c417	-0.96783584
103	0xbed181c4	-0.40919316
104	0xbf58a9c9	-0.8463407
105	0xbed739c4	-0.4203626
106	0xbeb266d5	-0.3484408
107	0xbf0543e8	-0.5205674
108	0xbf63448e	-0.8877648
109	0xbf17880f	-0.59191984
110	0xbf016114	-0.50538754
111	0xbe914459	-0.28372458
112	0xbf2f98c3	-0.6859247
113	0xbe853d81	-0.26023486
114	0xbe9f8b26	-0.3116085
115	0xbeab7d4f	-0.3349404
116	0xbf0f251d	-0.55916005
117	0xbe0006cd	-0.12502594
118	0xbf325f5d	-0.6967676
119	0xbea6c79e	-0.3257417
120	0xbeb638ea	-0.35590297
121	0xbe069c67	-0.131456
122	0xbecf2a66	-0.40462035
123	0xbef61a60	-0.48066998
124	0xbeaf8ce2	-0.34287173
125	0xbe88be40	-0.2670765
126	0xbf48b9f9	-0.7840877
127	0xbe5300f7	-0.20605837

fc2.weight f4 [128, 128]
0	0x3cadbda4	0.021208592
1	0xbd670ae6	-0.056406878
2	0xbd753e4f	-0.059873875
3	0x3cb606ea	0.022220094
4	0x3ea2f215	0.3182532
5	0x3e2df262	0.16986993
6	0xbdace63a	-0.0844235
7	0xbe1bac8f	-0.15202545
8	0x3e21a0d7	0.15784012
9	0x3e286aa3	0.16446929
10	0xbdbce9b7	-0.09224265
11	0x3d7e32cc	0.062060162
12	0xbd13ef01	-0.036116604
13	0xbe3a2164	-0.181768
14	0xbc851247	-0.016244067
15	0xbd4b7c6b	-0.0496792
16	0x3d00c0ee	0.031433992
17	0xbd203ff9	-0.03912351
18	0xbd973106	-0.07382397
19	0xbe961b04	-0.29317486
20	0xbbdb38ec	-0.006690135
21	0xbcc1aa67	-0.023640824
22	0xbd5e05ba	-0.05420468
23	0x3ed48fc9	0.4151595
24	0x3c63dc76	0.013907542
25	0x3d73821a	0.059450246
26	0x3d34fa0b	0.044183772
27	0x3ca1c007	0.019744886
28	0x3c90caf0	0.017674893
29	0xb9175558	-0.00014432275
30	0xbf0f38d9	-0.5594612
31	0xbd97d5d1	-0.07413829
32	0xba3c94ff	-0.0007193833
33	0xbdba1e6f	-0.09087836
34	0xbd95aa6e	-0.073078975
35	0xbd14c0e6	-0.036316775
36	0xbe40b657	-0.18819557
37	0xbd88caa4	-0.06679276
38	0xbf997ec0	-1.1991806
39	0xbd4335c6	-0.047658704
40	0x3e439b03	0.19102101
41	0xbe11aabf	-0.1422529
42	0x3e0bb0c9	0.13641657
43	0xbd554505	-0.052067775
44	0x3e8e10a8	0.27747083
45	0xbdb8a73b	-0.09016272
46	0xbe32ef6b	-0.17474143
47	0xbcc460ac	-0.023971878
48	0x3e19ea0b	0.15030687
49	0x3e4e4832	0.20144728
50	0x3c80873d	0.015689487
51	0xbe1a0f0a	-0.150448
52	0xbd7d1ea7	-0.06179681
53	0x3e5c419a	0.215094
54	0xbe63964d	-0.22225304
55	0xbd231f18	-0.039824575
56	0xbe46b45b	-0.19404738
57	0xbd1260da	-0.035736896
58	0xbe4f6594	-0.20253593
59	0xbf36719d	-0.7126711
60	0xbd09e518	-0.033665746
61	0xbd6a208f	-0.057159957
62	0xbe4ad2c6	-0.19806966
63	0xbb5b7da0	-0.0033491626
64	0xbdd38a1c	-0.10329077
65	0xbc936e91	-0.017997058
66	0x3e0665d8	0.13124788
67	0xbd15cfe3	-0.03657521
68	0xbdbb2c39	-0.09139294
69	0x3d837269	0.064183064
70	0xba33c8e5	-0.0006858244
71	0xbdaf0b7a	-0.08547111
72	0xbe85e215	-0.2614905
73	0xbd65d86c	-0.0561146
74	0x3d81a1ea	0.06329711
75	0x3db8b76b	0.09019359
76	0xbc8bf663	-0.01708526
77	0xbdae2ce3	-0.08504655
78	0x3d5604a7	0.05225053
79	0xbd95f413	-0.07321944
80	0x3ece76bf	0.4032497
81	0xbd8e2898	-0.069413364
82	0x3da1e0be	0.07904194
83	0xbc722de8	-0.014781453
84	0xbd067a39	-0.032831404
85	0x3e6fe00f	0.23425315
86	0xbcf30d09	-0.029669302
87	0xbdb96d66	-0.09054069
88	0x3c93cda9	0.018042402
89	0x3b9d12f9	0.0047935215
90	0xbe966836	-0.29376382
91	0x3deba5e8	0.115062535
92	0xbf0abbaf	-0.5419263
93	0xbf9482fe	-1.1602476
94	0x3d5da32d	0.054110695
95	0xbdc12840	-0.09431505
96	0x3dc712f5	0.09720413
97	0xbd34434a	-0.044009484
98	0xbd0318a0	-0.032005906
99	0xbcb595d0	-0.022166163
100	0xbd202f06	-0.039107345
101	0xbfa87754	-1.3161416
102	0x3db96029	0.09051544
103	0x3e9bc9df	0.30427453
104	0x3e84321a	0.25819474
105	0xbd836378	-0.064154565
106	0xbd10f283	-0.035387527
107	0xbd36bb0e	-0.044611983
108	0xbf0a7b70	-0.540946
109	0x3dcdd4ea	0.10050376
110	0xbae995db	-0.001782115
111	0x3df8849b	0.121346675
112	0xbe18e748	-0.14931977
113	0x3c805374	0.015664794
114	0x3d354182	0.044251926
115	0x3d9a61ea	0.07538207
116	0xbd12ddef	-0.035856184
117	0x3ce6e4bd	0.028185243
118	0x3e8a3d3e	0.2699985
119	0xbc7ebf79	-0.01554858
120	0xbd527c82	-0.05138827
121	0xbd941fc1	-0.07232619
122	0x3d55ba3a	0.052179553
123	0xbb93cf45	-0.0045107924
124	0xbce551e4	-0.02799315
125	0xbca15baa	-0.01969703
126	0xbd709bb5	-0.058742244
127	0x3d47f358	0.048816055
128	0x3c53353d	0.012891111
129	0x3d09bd84	0.033628
130	0xbe6e35b4	-0.23262674
131	0x3e1e003e	0.1542978
132	0xbced4747	-0.028964652
133	0xbd8d89b1	-0.06911028
134	0x3ddc7fd1	0.107665665
135	0x3e61e092	0.22058323
136	0xbd72ab47	-0.059245374
137	0x3dd9d9f1	0.10637272
138	0xbdaf2348	-0.08551651
139	0xbde9523f	-0.1139264
140	0xbf08f443	-0.53497714
141	0xbed22e18	-0.41050792
142	0xbc225ffd	-0.009910581
143	0xbda361ef	-0.07977664
144	0x3e01d54f	0.12679027
145	0xbf4c507d	-0.79810315
146	0xbe1284eb	-0.14308517
147	0x3dd2d4fb	0.10294529
148	0x3dabdfc4	0.08392289
149	0x3e2d688e	0.16934416
150	0xbdddc50e	-0.10828601
151	0x3d04da7b	0.03243492
152	0xbef2d793	-0.47430095
153	0x3dbadf1f	0.09124588
154	0x3de33a6e	0.11095129
155	0x3ca5d694	0.02024392
156	0x3dddc077	0.108277254
157	0xbd2f8fcc	-0.042861745
158	0xbd08bdb8	-0.033384055
159	0x3dc22752	0.09480156
160	0xbf567aee	-0.83781326
161	0x3df4c520	0.11951661
162	0x3e29235c	0.16517395
163	0x3d5ad719	0.05342779
164	0xbdbd501d	-0.09243796
165	0x3d3eeae6	0.046610735
166	0x3d4a9206	0.049455665
167	0xbe51a651	-0.20473601
168	0x3df46581	0.11933423
169	0xbe8f4388	-0.2798121
170	0x3e272bb7	0.1632527
171	0xbe66d70f	-0.22542976
172	0xbce9914a	-0.028511662
173	0xbe04f33f	-0.12983416
174	0xbe6e549d	-0.23274465
175	0xbdcdd5e1	-0.1005056
176	0x3dbae5b3	0.09125843
177	0x3cbef7d1	0.023311527
178	0xbb97903a	-0.0046253474
179	0x3e24ccd9	0.16093768
180	0xbe99ca31	-0.30037072
181	0x3df5bf4a	0.11999376
182	0x3e5c5c44	0.21519572
183	0xbdbe4c35	-0.09291879
184	0xbdaa9734	-0.08329621
185	0x3d9d6c79	0.07686705
186	0xbc67f198	-0.0141567215
187	0xbdae87f0	-0.08522022
188	0xbc9c0ef5	-0.0190501
189	0x3da149c0	0.07875395
190	0x3dca40c6	0.09875636
191	0x3d915a34	0.07097283
192	0x3cb188cd	0.021671677
193	0xbe523037	-0.20526205
194	0xbf165dae	-0.58736694
195	0x3dcbc13a	0.099489644
196	0xbd988723	-0.0744765
197	0xbc4cbaf0	-0.012495741
198	0x3daaccaa	0.08339818
199	0xbc08b343	-0.008343521
200	0xbef414fb	-0.47672257
201	0x3e1af6e7	0.15133248
202	0x3d53b0a4	0.05168213
203	0x3d92e065	0.07171706
204	0x3d2b6fa6	0.041854523
205	0x3d9e97a9	0.07743771
206	0x3cf38bf7	0.029729826
207	0x3cce4139	0.025177585
208	0xbda977be	-0.08274792
209	0xbf0048c2	-0.5011102
210	0x3dcb8f21	0.09939409
211	0xbdb62a3b	-0.088947736
212	0xbd1cf691	-0.03832108
213	0xbf02f1c4	-0.51150155
214	0xbe58b527	-0.21162854
215	0x3ba112d1	0.004915573
216	0x3c208b35	0.009798815
217	0xbdef0d3d	-0.11672447
218	0xbe0329fa	-0.12808982
219	0xbef452f6	-0.47719544
220	0xbaddee1d	-0.0016931925
221	0x3e1212ec	0.1426503
222	0x3db72548	0.08942658
223	0xbd56098b	-0.052255195
224	0xbb75cc59	-0.0037505834
225	0x3e3bce75	0.18340476
226	0x3d080475	0.033207376
227	0x3da3078a	0.07960422
228	0x3d60a2b7	0.054842677
229	0x3d763602	0.0601101
230	0xbf23378b	-0.63756627
231	0x3c6cf932	0.01446371
232	0xbf2a556d	-0.665366
233	0x3d3fc90c	0.046822593
234	0x3dcdcc41	0.10048724
235	0x3e09af4c	0.13445777
236	0x3c6a5397	0.014302156
237	0x3cd5b249	0.02608599
238	0xbd27dbba	-0.040981032
239	0x3d1f831b	0.03894339
240	0x3e4ee2c9	0.20203699
241	0xbdf57092	-0.11984362
242	0xba784e37	-0.0009472104
243	0xbca81302	-0.020516876
244	0x3e5d4002	0.21606448
245	0x3cf1f276	0.02953456
246	0x3cf052cc	0.029336356
247	0x3cf31e7c	0.029677622
248	0x3db7325c	0.08945152
249	0x3dbc93c1	0.09207869
250	0xbfa1a60c	-1.2628798
251	0x3dd89c67	0.105767064
252	0x3d1573db	0.03648744
253	0x3d173c6f	0.03692287
254	0xbee3fda4	-0.4452945
255	0xbe0ea529	-0.13930191

fc2.bias f4 [128]
0	0xbe140018	-0.14453161
1	0xbed2cb0a	-0.41170532
2	0xbdc8e294	-0.09808841
3	0xbe1a71dc	-0.15082496
4	0x3e651a3b	0.22373287
5	0x3e4960f3	0.1966589
6	0x3b6415e5	0.003480309
7	0xbb6adffe	-0.0035839076
8	0xbde6f5a0	-0.11277318
9	0x3df2ed36	0.11861651
10	0xbda9bf20	-0.08288407
11	0xbe70667b	-0.23476593
12	0x3e0e1576	0.13875374
13	0xbd4fc3b9	-0.050723765
14	0xbf090c83	-0.53534716
15	0xbda0b473	-0.07846918
16	0xbeb8b6e9	-0.3607705
17	0xbc8a00c8	-0.016846076
18	0xbc0d512b	-0.008625309
19	0xbabcb303	-0.0014396611
20	0xbe1ad75a	-0.15121213
21	0x3ddd9223	0.10818889
22	0x38e438b7	0.00010882451
23	0x3e4852dc	0.19562858
24	0xbdb19bf3	-0.08672323
25	0xbd905cdb	-0.07048961
26	0xbe93ed4b	-0.28891978
27	0xbe1ff447	-0.15620528
28	0x3c307754	0.010770638
29	0x3e4b82b7	0.19874083
30	0x3bb3cbbe	0.0054869344
31	0xbb340236	-0.0027467138
32	0xbd2e1b41	-0.04250646
33	0x3dff0026	0.124512
34	0xbe105a83	-0.14097027
35	0xbe0534ef	-0.13008474
36	0xbd3e6870	-0.046486318
37	0xbc59c2ba	-0.013291055
38	0xbcbd8732	-0.023135755
39	0xbe0a7f15	-0.1352504
40	0x3dd46468	0.103707135
41	0x3e8a4ea1	0.27013114
42	0x3d381064	0.044937506
43	0xbd3b3d6e	-0.04571288
44	0xbcf2ff94	-0.029662885
45	0xbbbc8261	-0.005752847
46	0xbe3bb228	-0.1832968
47	0x3d88cd38	0.06679767
48	0x3d4f3b43	0.050593626
49	0xbe04cd46	-0.1296893
50	0x3b29bd34	0.0025900127
51	0xbd88dfba	-0.066832975
52	0xbac4d346	-0.0015016578
53	0xbe07d30d	-0.13264103
54	0x3e16cd9c	0.14726871
55	0xbd84a94f	-0.064776056
56	0xb9b84b6e	-0.00035151414
57	0xbe3805d4	-0.17970973
58	0xbd11fdc4	-0.0356424
59	0x3be9930f	0.0071281265
60	0xbdc15511	-0.09440053
61	0xbdc1f461	-0.0947044
62	0xbd9c3014	-0.07626358
63	0x39a701b1	0.00031853982
64	0x3ddfa660	0.109204054
65	0x3b5a2282	0.0033284728
66	0x3c3290b4	0.010898758
67	0xbdf13a40	-0.117786884
68	0xbbf4aa6b	-0.0074666045
69	0x3d26fe60	0.040769935
70	0xbe71fa65	-0.23630674
71	0xbdc5e9f9	-0.09663767
72	0x3e0369dd	0.12833352
73	0x3db3d667	0.087811284
74	0xbe81294d	-0.25226822
75	0x3e506d05	0.20354088
76	0xbe7b91ae	-0.24567291
77	0xbde3f9d8	-0.11131638
78	0xbdd249e7	-0.10268002
79	0xbbaa7f2f	-0.0052031497
80	0xbdede16a	-0.1161526
81	0xbe196080	-0.14978218
82	0x3e778916	0.24173388
83	0xbe038a9e	-0.12845847
84	0xb8c10ab2	-9.204949e-05
85	0x3cdd69a3	0.02702791
86	0x3dba170e	0.090864286
87	0xbd5099f7	-0.050928082
88	0xbe5286d9	-0.20559253
89	0xbe855d9d	-0.26047984
90	0xbdcb9d82	-0.099421516
91	0xbe0c12e9	-0.13679089
92	0xbe3ab6d0	-0.182338
93	0xbe04e7aa	-0.12978998
94	0x3e6fa278	0.2340182
95	0xbf03a5cc	-0.5142486
96	0xbec4ba11	-0.38423207
97	0xbead2e14	-0.33824217
98	0x3dbe8727	0.09303122
99	0xbe2d9250	-0.16950345
100	0x3c8c9a6d	0.01716348
101	0x3e782880	0.242342
102	0x3e35f0b4	0.17767602
103	0xbdaca15e	-0.08429216
104	0xbe8218e5	-0.25409618
105	0x3e95546a	0.29165965
106	0xbe4b50d2	-0.19855049
107	0xbebbed12	-0.36704308
108	0xbe286514	-0.16444808
109	0x3e46fe25	0.19432886
110	0x3df3ca74	0.11903849
111	0xbed682f9	-0.418968
112	0x3d03576d	0.032065798
113	0xbf0a65ce	-0.5406159
114	0xbecd3600	-0.4008026
115	0x3b06e9a7	0.0020586045
116	0xbcf683b1	-0.030092092
117	0x3e3ad2e6	0.18244514
118	0xbe52d6ab	-0.20589702
119	0xbf076d79	-0.52901417
120	0xbefb2dc1	-0.49058345
121	0xbd4cdace	-0.050013356
122	0x3d585224	0.05281271
123	0xbed3029c	-0.41212928
124	0x3e65758e	0.22408125
125	0xbde218f5	-0.110399164
126	0x3df145d7	0.11780899
127	0xbe1a078c	-0.15041941

fc3.weight f4 [64, 128]
0	0x3d6c1208	0.057634383
1	0x3c71d8fe	0.014761208
2	0xbd7af5ad	-0.06126945
3	0x3ed211cb	0.410292
4	0xbdd77107	-0.10519605
5	0x3c96ba00	0.018399239
6	0x3dd4e1e9	0.103946514
7	0xbdd4feba	-0.10400148
8	0xbddfc21f	-0.109256975
9	0xbde33d03	-0.110956214
10	0xbf5fa33e	-0.8735846
11	0xbe2d3d6b	-0.1691796
12	0xbbf42016	-0.007450114
13	0x3dd8de1a	0.105892375
14	0xbc377b6e	-0.0111988615
15	0x3dc69b5e	0.09697603
16	0xbe8bd2a6	-0.2730915
17	0x3ea25761	0.3170729
18	0x3e859087	0.26086828
19	0x3e22e40c	0.15907305
20	0xbe00e034	-0.12585527
21	0xbfa67149	-1.3003322
22	0x3cf58c77	0.029974205
23	0xbe8232b7	-0.25429317
24	0x3dd6e1ec	0.1049231
25	0x3d82f90b	0.063951574
26	0xbdab0495	-0.08350483
27	0x3e010568	0.12599719
28	0xbda75423	-0.08170345
29	0x3e3e7490	0.18599153
30	0xbe1af707	-0.15133296
31	0xbd7d223c	-0.061800227
32	0x39f0d388	0.0004593397
33	0x3d271489	0.04079107
34	0x3c552fa7	0.0130118495
35	0x3d1748da	0.03693471
36	0xbe1b87b3	-0.15188484
37	0x3d16fef9	0.036864255
38	0x3e88ac0f	0.2669377
39	0x3d97f9ba	0.074206784
40	0xbe381f79	-0.17980756
41	0xbe8a51d7	-0.27015564
42	0x3e4ac5a9	0.19801964
43	0x3e110c48	0.14164841
44	0x3e9496d8	0.29021335
45	0xbf131dfe	-0.5746764
46	0xbf6bb593	-0.92073935
47	0xbdfcb740	-0.1233964
48	0xbec218e2	-0.3790961
49	0x3e734ebc	0.23760504
50	0xbe316210	-0.17322564
51	0xbf713a3c	-0.94229484
52	0xbebe89e5	-0.3721458
53	0xbeaf4c5f	-0.34237954
54	0xbdcf0ca3	-0.10109832
55	0x3c5f710a	0.01363779
56	0x3cf3fd9c	0.029784016
57	0xbd261974	-0.040551618
58	0x3d4c407b	0.04986618
59	0xbf04673e	-0.51720035
60	0x3eb29d32	0.34885556
61	0xbf1ec624	-0.6202109
62	0xbf9c84f5	-1.2228075
63	0x39b5915f	0.0003463132
64	0x3d6f7e81	0.058470253
65	0x3de94642	0.11390354
66	0x3d85d554	0.0653483
67	0x3d8be33f	0.06830453
68	0xbf3fa50f	-0.74861234
69	0xbed2d28d	-0.41176262
70	0x3d3f5d96	0.04672011
71	0x3cd6907f	0.026191948
72	0x3eba221a	0.36354142
73	0xbf5efdce	-0.87106025
74	0xbd982a91	-0.07429994
75	0x3d1e7013	0.0386811
76	0xbe01f722	-0.1269193
77	0xbf234018	-0.63769674
78	0x3e93cd62	0.28867632
79	0x3e574fbc	0.2102651
80	0x3eab17f6	0.33416718
81	0x3e9ac4b2	0.30228192
82	0xbe55afd1	-0.2086785
83	0xbf6118b9	-0.8792835
84	0x3e225091	0.15851046
85	0xbda82d11	-0.08211721
86	0xbdcc0bde	-0.09963201
87	0x3e863d64	0.26218712
88	0xba8efcbe	-0.0010909063
89	0xbd4fbbbb	-0.050716143
90	0xbf85c7c9	-1.0451595
91	0x3dce4d2e	0.100733146
92	0x3df18bc7	0.117942385
93	0xbdd8845e	-0.10572122
94	0xbecbb7b3	-0.3978859
95	0x3da41ea8	0.0801366
96	0xbf12afce	-0.57299507
97	0xbdcaa2d0	-0.09894335
98	0xbd91352f	-0.07090222
99	0xbf4576bb	-0.77134293
100	0xbf9cc3e7	-1.2247285
101	0xbf87b0d9	-1.0600845
102	0xbccda8df	-0.025104938
103	0xbf2b7da7	-0.66988605
104	0xbde9a787	-0.114089064
105	0xbdff8ef3	-0.12478437
106	0x3a3790be	0.0007002464
107	0xbba6652b	-0.005077978
108	0x3ba7fa2e	0.0051262593
109	0x3d5d01f4	0.05395694
110	0xbbfb412e	-0.007667682
111	0x3c0fa514	0.008767385
112	0xbf97d5ad	-1.1862084
113	0x3d959136	0.073030874
114	0x3c91205a	0.017715622
115	0x3cf23fcc	0.029571436
116	0xbd1ad804	-0.037803665
117	0x3e06e214	0.1317218
118	0x3cea7366	0.02861948
119	0x3c5ad722	0.013356956
120	0x3d532121	0.051545266
121	0xbe689c0d	-0.22715779
122	0xbf026fb4	-0.50951695
123	0xbda5e5ff	-0.08100509
124	0xbd8f1533	-0.06986465
125	0x3e0ea4f8	0.13930118
126	0x3d260c7b	0.040539246
127	0x3d91d460	0.071205854
128	0xbd6ba791	-0.05753285
129	0xbce72407	-0.028215421
130	0xb92f0a47	-0.00016693129
131	0xbd8f9c22	-0.07012202
132	0x3de13458	0.10996312
133	0xbcb6fd59	-0.022337602
134	0x3c95f12d	0.018303478
135	0x3e1520d4	0.14563304
136	0x3def35ee	0.11680208
137	0x3bb36f0c	0.0054758843
138	0x3e4eb71a	0.20187035
139	0x3e8ffde5	0.28123394
140	0x399136f7	0.00027697507
141	0x3debd606	0.11515431
142	0x3b9ce6a7	0.004788238
143	0x3d15172b	0.036399048
144	0x3e7c570c	0.24642581
145	0xbf80ce14	-1.006289
146	0x3e397158	0.18109643
147	0xbcf65b1d	-0.030072743
148	0x3e7b5c25	0.24546869
149	0x3eb1e164	0.34742272
150	0xbd0d4733	-0.03449173
151	0xbd54f29c	-0.051989183
152	0x3e4a6944	0.19766718
153	0xbd82d9f9	-0.06389231
154	0x3e180149	0.1484424
155	0xbded552c	-0.11588511
156	0xbd62b41e	-0.055347554
157	0x3d8cb560	0.06870532
158	0xbd233a13	-0.039850306
159	0xbe048259	-0.12940349
160	0xbc59571c	-0.013265397
161	0xbdfafa38	-0.12254757
162	0xbb626a6b	-0.0034548293
163	0xbd23975a	-0.039939262
164	0xbd952fa9	-0.07284481
165	0xbf0e0a5f	-0.55484575
166	0xbe85e5b9	-0.26151827
167	0x3ddb1e6d	0.10699163
168	0x3dff0765	0.12452582
169	0x3e32845b	0.17433302
170	0x3de598e4	0.11210802
171	0xbe39f7f0	-0.18160987
172	0x3e8b2eae	0.2718405
173	0xbe07c3ef	-0.13258336
174	0x3ec48e81	0.38389972
175	0x3efd6f8f	0.49499175
176	0xbcc8261e	-0.024432238
177	0xbe1da6c3	-0.15395646
178	0x3dcd0429	0.10010559
179	0xbf7c6432	-0.98590386
180	0x3d6b1704	0.057394996
181	0x3d9226c9	0.07136304
182	0xbd665af4	-0.056239083
183	0x3e4c944c	0.19978446
184	0xbf4cf803	-0.80065936
185	0x3d1007ae	0.035163574
186	0xbc9cc5f8	-0.019137368
187	0x3dcb1a3c	0.09917113
188	0xbf3f0c60	-0.7462826
189	0xbf7f584b	-0.997441
190	0xbf4f3620	-0.80941963
191	0x3c6ff13c	0.014644917
192	0x3dca82d2	0.09888233
193	0xbe426259	-0.18982829
194	0xbece2c60	-0.4026823
195	0xbd5090ca	-0.05091933
196	0xbf3d0f26	-0.7385124
197	0x3e5a0f12	0.21294811
198	0x3afa2026	0.0019083067
199	0xbcf65ea7	-0.03007443
200	0xbc9246bd	-0.017855996
201	0x3f06fffc	0.5273435
202	0x3d0b2089	0.033966575
203	0xbdce6a83	-0.10078909
204	0x3ea194c0	0.315588
205	0x3e8f217d	0.27955237
206	0xbd40c707	-0.047064807
207	0xbe4d9be9	-0.20079006
208	0xbe0f9fe8	-0.14025843
209	0xbf390ee3	-0.7228834
210	0x3ecc065a	0.39848596
211	0x3e9cb2a2	0.30605036
212	0xbd537862	-0.051628478
213	0xbd6b4ce5	-0.05744638
214	0x3e955165	0.29163662
215	0xbeaf3ce2	-0.34226137
216	0x3e819473	0.2530857
217	0x3da89e24	0.08233288
218	0x3e543332	0.20722654
219	0x3c6eac80	0.014567494
220	0x3e8299d2	0.2550798
221	0x3e8b9461	0.27261642
222	0x3e1e7017	0.15472446
223	0xbdb8ca06	-0.09022908
224	0x3dbcd0f6	0.09219544
225	0x3e14348b	0.14473169
226	0xbe196d8d	-0.14983197
227	0x3e4f4dec	0.20244569
228	0x3e09e626	0.13466701
229	0xbe16d492	-0.14729527
230	0x3cfc749f	0.030817328
231	0xbf6dc670	-0.92880917
232	0x3e024521	0.12721683
233	0xbcdd1143	-0.02698577
234	0xbdc3aea4	-0.095547944
235	0x3c188076	0.009307971
236	0x3ba9c3fc	0.005180834
237	0xbf07c425	-0.5303367
238	0x3eadfc79	0.33981684
239	0x3cd92180	0.026505232
240	0xbf5fa901	-0.87367254
241	0x3c6fb541	0.014630617
242	0xbd5db5a1	-0.054128293
243	0xbc11802b	-0.008880655
244	0x3e272b0f	0.1632502
245	0x3e9569f9	0.29182413
246	0xbc789bae	-0.015173836
247	0xbce177bc	-0.027522914
248	0xb90b3b70	-0.00013278215
249	0x3db30938	0.08741993
250	0x3e1c4ca6	0.15263614
251	0x3eab08a5	0.33405033
252	0x3c85d918	0.01633887
253	0xbe2860a4	-0.16443115
254	0x3e70b837	0.23507772
255	0xbd3e9fc8	-0.046539098

fc3.bias f4 [64]
0	0x3e32b92f	0.17453454
1	0x3e81ac7d	0.2532691
2	0x3dfeca62	0.12440945
3	0x3c44ee9c	0.0120197795
4	0x3de59b1f	0.112112276
5	0x3e51ee96	0.2050117
6	0x3e7fe729	0.24990524
7	0x3e349e1a	0.17638436
8	0x3e814ef5	0.25255552
9	0x3db7d59c	0.0897629
10	0x3e50cd23	0.20390753
11	0x3e707c0a	0.23484817
12	0x3f046507	0.51716655
13	0x3e9f837d	0.31155005
14	0x3d814f94	0.063140064
15	0x3dbe9d80	0.093073845
16	0x3ea36985	0.31916443
17	0x3da1cbae	0.07900177
18	0x3ea5a38d	0.32351342
19	0x3e696601	0.22792818
20	0x3e5092ee	0.20368549
21	0x3ebad332	0.36489254
22	0xbb471e02	-0.0030382876
23	0x3e6a30f9	0.22870244
24	0x3e1723e3	0.14759783
25	0x3ed94764	0.4243728
26	0x3e14c140	0.14526844
27	0x3e97de36	0.2966172
28	0x3d686496	0.05673655
29	0x3e019cf2	0.12657526
30	0x3eb553b2	0.35415417
31	0xbc9cdac5	-0.019147286
32	0x3eacae71	0.33726838
33	0xbd510df5	-0.0510387
34	0x3e156b5f	0.1459174
35	0x3e85f8b3	0.26166305
36	0x3ee984aa	0.45609027
37	0x3e677697	0.22603832
38	0x3de9f5ac	0.11423811
39	0x3def450c	0.116830915
40	0x3e23b02b	0.15985171
41	0x3e1edf15	0.15514787
42	0x3e3a3b83	0.18186764
43	0x3ea5427b	0.32277283
44	0x3e47da0b	0.1951677
45	0x3e2b5b87	0.16734134
46	0xbc8f4276	-0.017487746
47	0x3da44667	0.08021241
48	0x3e685a8e	0.22690794
49	0x3ecbe983	0.39826593
50	0x3e2b35f9	0.16719808
51	0x3e69d37a	0.22834578
52	0x3e8d527e	0.27602
53	0xbd4060bc	-0.046967253
54	0x3d47346e	0.048633985
55	0x3e4a1228	0.19733489
56	0x3ddf6756	0.10908382
57	0x3df2fc33	0.118645094
58	0x3dc04a3c	0.09389159
59	0x3eaad516	0.33365697
60	0x3e3024c8	0.17201531
61	0x3e98185c	0.29706085
62	0x3e8202a9	0.25392655
63	0x3ca8043a	0.020509828

fc4.weight f4 [9, 64]
0	0xbf6c2c0c	-0.9225471
1	0x3e8658a8	0.26239514
2	0x3d722549	0.05911759
3	0xc012ccca	-2.2937493
4	0x3ddcbfa5	0.10778741
5	0x3e55db89	0.20884527
6	0xbf0c4228	-0.54788446
7	0xbf229c32	-0.63519585
8	0x3debe601	0.11518479
9	0x3dfd3000	0.12362671
10	0x3e7a22d1	0.24427344
11	0x3e372344	0.17884547
12	0x3e96118f	0.2931027
13	0x3e73690c	0.23770541
14	0xbf9fa03f	-1.2470778
15	0xbedb90d0	-0.4288392
16	0x3e6064f7	0.21913515
17	0xbffa671c	-1.9562716
18	0x3e09fe3f	0.13475893
19	0xbe969dca	-0.29417259
20	0x3e0bdc2e	0.1365821
21	0x3e1c6c35	0.15275653
22	0x3dd7845f	0.10523295
23	0x3e54c3b6	0.20777783
24	0x3ee7941a	0.4523018
25	0x3f1957a9	0.59899384
26	0x3e8e045c	0.277377
27	0x3e37f9fb	0.17966454
28	0x3e42159e	0.18953559
29	0xbf42cd1b	-0.76094216
30	0x3e641c14	0.22276336
31	0x3de8a33b	0.11359259
32	0x3ee739df	0.4516134
33	0xc0069802	-2.1030278
34	0xbf230989	-0.63686424
35	0x3e6f8cf3	0.23393612
36	0x3eb7c5bc	0.35893047
37	0x3e9460b7	0.28980038
38	0x3d1260a2	0.035736687
39	0xbc86e5e8	-0.01646705
40	0xbd4b5b9a	-0.049647905
41	0xbf23021d	-0.636751
42	0x3e5f31e3	0.21796374
43	0x3e69080b	0.22756974
44	0x3defe9e7	0.11714535
45	0x3e637026	0.2221075
46	0x3e02c587	0.12770663
47	0x3eaf994f	0.34296653
48	0xbf0dd8c5	-0.5540889
49	0x3e30f7cd	0.17282028
50	0x3f814bcc	1.0101256
51	0x3e6566c8	0.22402489
52	0x3e908fe0	0.28234768
53	0x3da6af43	0.08138897
54	0xbd1f2e1a	-0.038862325
55	0xbec9f57b	-0.394451
56	0xbfce5da7	-1.612233
57	0x3e3a285b	0.18179457
58	0x3ea2a156	0.31763715
59	0x3e6e238f	0.23255752
60	0x3d362cd0	0.04447633
61	0x3e9a559f	0.3014345
62	0xbef6b7b0	-0.48187017
63	0x3fae5462	1.3619502
64	0xbfc662cc	-1.54989
65	0xbf7637a7	-0.9617867
66	0x3dae62ef	0.08514964
67	0x3e21c43b	0.15797512
68	0x3e099f94	0.1343978
69	0x3e1958f8	0.14975345
70	0xbee760b5	-0.4519097
71	0xbf09add0	-0.5378084
72	0x3e9cb76d	0.30608693
73	0x3deaa957	0.1145808
74	0x3e87b001	0.26501468
75	0x3e931a7a	0.28731138
76	0xc004a43a	-2.0725236
77	0xbe821485	-0.2540628
78	0x3e7ecd46	0.24882993
79	0x3e57bbd3	0.21067743
80	0x3d98d18f	0.07461845
81	0x3e05a734	0.13052064
82	0x3e935f8a	0.28783828
83	0xbf4177ca	-0.7557341
84	0x3e12ef46	0.14349088
85	0x3e6d5c8a	0.23179832
86	0x3dc60719	0.096693225
87	0x3e573c7f	0.21019171
88	0xbf3ac06f	-0.7294988
89	0xbf8038ef	-1.0017375
90	0x3ebef953	0.37299594
91	0x3e60e5b7	0.2196263
92	0xbf03494d	-0.51283723
93	0x3e210882	0.15725902
94	0xbe2a7f1a	-0.16650048
95	0x3df0978d	0.11747656
96	0xbf44cc7f	-0.76874536
97	0x3d8be474	0.06830683
98	0x3eefdffe	0.4685058
99	0x3e7f00b3	0.2490261
100	0xbfb22318	-1.391696
101	0xbf8255e8	-1.0182467
102	0x3eab4110	0.33448076
103	0x3ea564e7	0.32303545
104	0x3edcc011	0.43115285
105	0xbf07ea39	-0.5309177
106	0x3e890665	0.2676269
107	0xbd9a899e	-0.0754578
108	0x3e13cf55	0.1443456
109	0x3e906b77	0.2820699
110	0x3f05bfb7	0.5224566
111	0x3eec703f	0.46179387
112	0xbf35560f	-0.7083444
113	0x3e04c136	0.12964329
114	0xbf821e35	-1.0165468
115	0x3e7f097a	0.24905959
116	0x3e31bd73	0.17357425
117	0x3dab6925	0.08369664
118	0x3da86582	0.08222486
119	0xbee838b5	-0.45355764
120	0xbfc0988b	-1.5046552
121	0x3e49ff03	0.19726186
122	0x3ec7f77a	0.39055997
123	0xbfaad4ae	-1.3346155
124	0x3e3fd251	0.18732573
125	0xbf364eae	-0.71213806
126	0xc00f1571	-2.2356837
127	0xbee52755	-0.4475657
128	0x3e5e8716	0.21731219
129	0x3e79f18a	0.24408546
130	0xbff6b42a	-1.9273732
131	0x3e00b63c	0.12569517
132	0x3decebbe	0.11568402
133	0x3e35f203	0.17768101
134	0xbea7e7d5	-0.3279406
135	0x3e2ec407	0.17066966
136	0x3eb0c5e1	0.3452597
137	0x3df4a6ca	0.11945875
138	0x3e910289	0.28322247
139	0xbf963f3c	-1.1738048
140	0x3e9ee16e	0.31031364
141	0x3e8c3308	0.27382684
142	0x3e4bce09	0.19902815
143	0x3e5c7ca3	0.2153192
144	0x3e901bc2	0.28146178
145	0x3de43c99	0.111443706
146	0x3e646480	0.22303963
147	0x3ed0ade0	0.40757656
148	0x3e262075	0.16223319
149	0x3ed06263	0.40700063
150	0x3dcdaf4a	0.10043199
151	0xbe2be509	-0.16786589
152	0xbebdf788	-0.37102914
153	0x3e5d5eaa	0.21618143
154	0xbf4a1c8c	-0.7894981
155	0x3e73c9ac	0.238074
156	0xc029db58	-2.6540127
157	0x3e9eeddb	0.31040844
158	0xbdcd978c	-0.10038671
159	0xbfd8e792	-1.694567
160	0x3ee881a3	0.45411405
161	0x3d81aa8a	0.06331356
162	0x3f1919ea	0.59805167
163	0x3e9f6d2a	0.31137973
164	0x3eb94198	0.36182857
165	0xbd9a5d8d	-0.07537375
166	0xbf4234e1	-0.75861937
167	0x3ddb55f3	0.10709753
168	0xbe779dfd	-0.24181361
169	0xbf03ea8c	-0.51529765
170	0x3e55a18b	0.20862405
171	0x3eb0346d	0.34414998
172	0xbd9c7d30	-0.07641065
173	0xbe8cc009	-0.2749026
174	0x3ef7bd81	0.48386768
175	0x3f30444e	0.68854225
176	0x3e2561aa	0.16150537
177	0x3e81d90f	0.25360915
178	0xbf6c0496	-0.921945
179	0xbf5fb553	-0.87386054
180	0x3ea23ac7	0.3168547
181	0xc0015974	-2.0210848
182	0x3dc7cd68	0.09755975
183	0x3eab0639	0.33403185
184	0x3e39bf8a	0.18139473
185	0x3e000ce6	0.1250492
186	0xbee81679	-0.45329645
187	0x3e94922e	0.29017776
188	0x3e102f7a	0.14080611
189	0xbea96c51	-0.3309045
190	0x3dcecec9	0.10098035
191	0xbd962a64	-0.07332304
192	0x3e83415e	0.2563581
193	0xbfc8a15c	-1.5674243
194	0x3dbcba62	0.09215237
195	0x3e0b9073	0.13629322
196	0x3e0020b1	0.12512471
197	0x3e4e1c02	0.20127872
198	0x3e96ad9e	0.29429334
199	0x3ddc3e9a	0.10754128
200	0x3c309a1e	0.010778932
201	0x3dec14b3	0.115273856
202	0xbfa37dd6	-1.2772777
203	0x3e781746	0.24227628
204	0x3e36a3e3	0.17835955
205	0x3e8d4e92	0.27599007
206	0x3cb0dbff	0.021589277
207	0xbf0cfc3f	-0.55072397
208	0x3e811ce4	0.25217354
209	0x3dfd428e	0.1236621
210	0xbf81a031	-1.0127012
211	0x3ede1f89	0.43383434
212	0x3de8f710	0.113752484
213	0xbf13fe09	-0.578095
214	0x3dd0539c	0.10172197
215	0xbed591d4	-0.4171282
216	0x3f02c9e3	0.51089305
217	0xbf8decc3	-1.1087879
218	0xbf05ae96	-0.5221952
219	0xbfb4e021	-1.4130899
220	0x3e4b204a	0.19836536
221	0xbf9f98b1	-1.2468473
222	0x3e871029	0.26379517
223	0x3ded3ee4	0.11584261
224	0xbf18a944	-0.5963328
225	0x3d8642d1	0.06555713
226	0x3f3246d2	0.69639313
227	0xbe8beef9	-0.2733076
228	0x3eb7383a	0.35785085
229	0xbedcd90e	-0.4313435
230	0xbf551c43	-0.8324625
231	0x3ea4f54e	0.32218403
232	0xbf3001e2	-0.6875287
233	0xbe7a863d	-0.2446527
234	0x3e9552a1	0.29164603
235	0xbd99a2aa	-0.07501729
236	0x3e58eeba	0.21184817
237	0xbf71b30c	-0.9441383
238	0x3e84e456	0.25955456
239	0xbfa0a124	-1.2549176
240	0x3f59dc1b	0.8510148
241	0x3de82304	0.11334804
242	0x3e4f92cf	0.20270847
243	0x3e3932c1	0.18085767
244	0x3e8e6153	0.27808627
245	0x3da706cb	0.081555925
246	0xc0027109	-2.038149
247	0xbf007d90	-0.50191593
248	0x3da66eb4	0.08126584
249	0x3e23c425	0.15992792
250	0x3ee0684d	0.43829575
251	0x3d938299	0.07202644
252	0x3e6a7b1b	0.22898524
253	0xbead03bb	-0.3379191
254	0x3e8668dd	0.2625188
255	0xbf1f2780	-0.6216965

fc4.bias f4 [9]
0	0x3ddb5805	0.10710148
1	0xbe86afe8	-0.2630608
2	0xbcfe07f0	-0.031009644
3	0xbe4e0fc0	-0.20123196
4	0x3efd3d2f	0.49460742
5	0xbf03de43	-0.5151102
6	0x3e80f352	0.2518564
7	0x3b88ba68	0.004172612
8	0x3e439a89	0.19101919
